checkpoint_actor.pth (torch_old, 52511 bytes, 6 tensors)

fc1.weight f4 [128, 33]
0	0xbe5b3603	-0.21407323
1	0x3debde3a	0.11516996
2	0x3fa92125	1.321324
3	0xbe542e0e	-0.20720693
4	0xbe3f6d0a	-0.18693939
5	0x3dfab906	0.12242322
6	0x3ebcda35	0.3688523
7	0x3e9634cc	0.29337156
8	0xbe8a6092	-0.27026802
9	0x3f3f6606	0.7476505
10	0x3ebb09e8	0.36530995
11	0xbe83cc98	-0.2574203
12	0x3ecf6e7d	0.40513983
13	0x3f98357c	1.1891322
14	0x3dd456e7	0.10368138
15	0xbf26aef0	-0.65110683
16	0x3ea96c77	0.33090565
17	0x3eb70459	0.35745504
18	0xbe366702	-0.17812732
19	0xbcc7ef85	-0.024406204
20	0x3df5b6ba	0.11997743
21	0xbe340a7f	-0.17582129
22	0x3e995797	0.29949638
23	0x3dbf87e5	0.09352092
24	0x3e851c6d	0.2599825
25	0xbe0d4443	-0.13795571
26	0xbe8aee61	-0.27134994
27	0x3f1d3d0a	0.61421263
28	0xbd4e568a	-0.0503755
29	0x3d88e8ed	0.06685052
30	0xbf1d01ce	-0.6133088
31	0xbda23972	-0.07921113
32	0x3eea702d	0.45788708
33	0xbd75f8f6	-0.06005188
34	0x3dd3d40b	0.10343178
35	0x3f1a465f	0.6026363
36	0xbdabe96b	-0.0839413
37	0xbdfb214f	-0.122622125
38	0xbd5e8a3e	-0.054331057
39	0xbe87551d	-0.26432124
40	0x3e359f71	0.17736603
41	0x3d5d92ab	0.05409495
42	0xbe556c0f	-0.20842002
43	0x3ea56e5b	0.32310757
44	0x3e911c5c	0.2834195
45	0x3cbe50bf	0.023231862
46	0x3e323b2e	0.17405388
47	0xbd92afb5	-0.0716242
48	0xbe79702f	-0.24359201
49	0x3e157d08	0.14598477
50	0x3c2405b5	0.010011126
51	0x3e597d5d	0.21239229
52	0x3e0edc9a	0.1395134
53	0xbdc2838c	-0.09497747
54	0x3ebe82be	0.37209123
55	0x3e1870a0	0.14886713
56	0xbea06317	-0.313256
57	0xbea33ac6	-0.31880778
58	0xbeaba731	-0.33525994
59	0xbe373a18	-0.17893255
60	0x3ee535c8	0.44767594
61	0xbd9736b9	-0.073834844
62	0x3ce96ed0	0.028495222
63	0xbecab9fe	-0.39595026
64	0xbd8e2e52	-0.06942429
65	0x404ef120	3.233467
66	0x3f1ef31d	0.6208971
67	0x3f1484f6	0.5801538
68	0x3e991552	0.2989908
69	0xbefdf081	-0.49597552
70	0x3ea53f64	0.32274926
71	0xbecaf8e4	-0.39643013
72	0x3f285e81	0.657692
73	0xbe0d594b	-0.13803594
74	0x3eaf4732	0.34234005
75	0x3ebd7553	0.37003574
76	0x3e804cf1	0.25058702
77	0xbd244594	-0.040105417
78	0x3decea60	0.11568141
79	0xbe14e7e4	-0.14541584
80	0xbcb800df	-0.022461353
81	0xbe34666c	-0.17617196
82	0x3e7be322	0.24598363
83	0xbc013cbe	-0.007888017
84	0x3d28756d	0.04112761
85	0x3d78d92a	0.06075398
86	0x3d974d6d	0.07387815
87	0xbe438ace	-0.19095919
88	0xbd2419ef	-0.040063795
89	0x3dc5107b	0.09622284
90	0x3e11fd94	0.14256889
91	0xbf2d3a74	-0.6766732
92	0x3efaceeb	0.4898599
93	0x3f52ac60	0.82294273
94	0xbe5111fc	-0.20417017
95	0x3cc665cc	0.024218462
96	0xbf74b96a	-0.9559542
97	0xbcbb5b58	-0.022870705
98	0xbf2e2cfe	-0.680374
99	0xbf590077	-0.84766334
100	0x3e54d44d	0.20784111
101	0x3ed6a2c9	0.4192107
102	0xbd1d418b	-0.038392585
103	0x3e4d31a9	0.20038475
104	0x3e53dc2c	0.20689458
105	0x3b46cdf2	0.0030335155
106	0x3ce103b0	0.027467579
107	0x3e37583b	0.17904751
108	0x3d0f425a	0.034975387
109	0x3b14ef59	0.002272567
110	0x3e8ca0f0	0.27466536
111	0x3e831bb8	0.25607085
112	0xbeb282dc	-0.34865463
113	0x3e3e0a66	0.18558654
114	0xbefb9d4c	-0.49143445
115	0x3da6feab	0.08154043
116	0x3e200bfe	0.15629575
117	0xbc31d257	-0.010853372
118	0x3e26f336	0.16303715
119	0x3c018c6a	0.0079070125
120	0xbd6d7143	-0.057969343
121	0xbdbf0422	-0.0932696
122	0xbdc43084	-0.09579566
123	0x3d0eda36	0.03487607
124	0xbd4a94bd	-0.049458254
125	0x3f5aab3a	0.8541752
126	0xbdb2182d	-0.086960174
127	0x3dcb5ca3	0.099297784
128	0xbd944cdc	-0.07241222
129	0x3c9cdd1c	0.019148402
130	0xbb842c20	-0.0040335804
131	0x3fa8a6c6	1.3175895
132	0xbdef19b9	-0.11674828
133	0x3f67bd6a	0.905234
134	0xbf46db49	-0.7767835
135	0x3d93ac9e	0.072106585
136	0x3e8dc27a	0.27687436
137	0xbe70501b	-0.23468058
138	0x3eebdd46	0.46067256
139	0x3f10dbf2	0.5658561
140	0x3f99b219	1.2007476
141	0x3e29cb03	0.16581349
142	0xbc9238dc	-0.017849378
143	0xbecd09c5	-0.40046516
144	0xbd87021c	-0.06592199
145	0xbeaaac9c	-0.33334816
146	0xbe91ebd8	-0.28500247
147	0x3f07a4de	0.5298594
148	0xbde1ef58	-0.11031979
149	0x3efb074b	0.49029002
150	0x3dfc943e	0.123329625
151	0x3df3de69	0.11907656
152	0x3d809532	0.06278457
153	0xbdfdf03d	-0.123993374
154	0xbea25228	-0.31703305
155	0xbe42207f	-0.18957709
156	0xbe2eaf43	-0.17059045
157	0x3f2f375a	0.68443835
158	0x3c00958a	0.007848153
159	0x3e1341d2	0.14380577
160	0xbecabc09	-0.39596584
161	0x3d931173	0.071810625
162	0xbe16041e	-0.14650008
163	0xbdb408ba	-0.08790727
164	0xbdd3fd8f	-0.10351097
165	0x3eb13bfb	0.34616074
166	0x3e635866	0.2220169
167	0xbeaa122d	-0.33216992
168	0xbc42c808	-0.0118885115
169	0x3e694e99	0.22783889
170	0x3e251cb4	0.1612423
171	0xbe87d4b5	-0.2652947
172	0x3ea2edde	0.31822103
173	0x3f5c8936	0.8614687
174	0xbdea9e29	-0.11455948
175	0x3f329c85	0.6977008
176	0xbec4f75d	-0.38469973
177	0xbebc9f0d	-0.36840096
178	0x3d71fbd9	0.05907807
179	0xbd43fe61	-0.047850017
180	0x3f1f3e02	0.6220399
181	0x3e68ff84	0.22753721
182	0x3e216529	0.15761246
183	0x3e7bc6bd	0.24587531
184	0xbdbf6ea2	-0.093472734
185	0xbf5ac7ee	-0.8546132
186	0xbe548df9	-0.20757283
187	0xbe1e990b	-0.15488069
188	0xbe2a4f28	-0.16631758
189	0x3ec9643c	0.39334285
190	0x3eef9d12	0.46799523
191	0xbecad037	-0.3961198
192	0x3f132790	0.5748224
193	0xbdfb25b7	-0.12263053
194	0xbcc13894	-0.023586549
195	0xbeee4e7d	-0.46544257
196	0xbd3638fe	-0.044487946
197	0x3e8d65bc	0.2761668
198	0xbebd5741	-0.36980632
199	0x3f19cdde	0.60079753
200	0x3eb3308d	0.3499798
201	0xbd6ca451	-0.05777389
202	0xbc86799f	-0.016415415
203	0x3e28e1f6	0.16492447
204	0x3eda0022	0.42578226
205	0x3da39783	0.07987883
206	0xbf45c679	-0.7725597
207	0xbe5bad63	-0.2145286
208	0x3e48940f	0.1958773
209	0x3e3ef0eb	0.1864659
210	0xbe5f4340	-0.21802998
211	0x3ea5a6e8	0.32353902
212	0xbe44242c	-0.19154423
213	0x3e6f43f3	0.23365764
214	0xbd4041a0	-0.046937585
215	0xbe019a2e	-0.12656471
216	0x3cd86924	0.026417322
217	0xbdc99344	-0.09842542
218	0x3d86a25c	0.06573936
219	0x3d7f60ee	0.0623483
220	0xbcee5d6e	-0.029097285
221	0x3e0e612a	0.13904253
222	0x3de1c891	0.11024583
223	0x3e4b3829	0.19845642
224	0x3e326825	0.1742254
225	0x3ea5745d	0.3231534
226	0xbeee3857	-0.4652736
227	0xbc51b348	-0.012799092
228	0xbe975f3f	-0.29564855
229	0x3d5884ae	0.05286091
230	0x409d9911	4.924935
231	0xbf5aa060	-0.8540096
232	0xbed0a64c	-0.40751874
233	0x3f000556	0.5000814
234	0xbdc27c0e	-0.09496318
235	0xbe13d6a2	-0.14437345
236	0x3ded3332	0.1158203
237	0x3daf69f0	0.08565128
238	0xbd4943f3	-0.049137067
239	0x3e697a99	0.22800674
240	0xbf309ecf	-0.6899232
241	0x3eee0b52	0.46493012
242	0x3e323612	0.17403439
243	0xbdb0df73	-0.086363696
244	0x3ec1f339	0.37880877
245	0x3f140092	0.5781337
246	0x3dfed472	0.124428645
247	0xbeccf194	-0.4002806
248	0xbe140a6c	-0.144571
249	0x3e9b3cc5	0.303198
250	0xbe7974dc	-0.24360985
251	0xbeb4b716	-0.35295933
252	0xbd80a298	-0.06281012
253	0xbec7609c	-0.38940895
254	0x3f1a5cb2	0.6029769
255	0xbe04c336	-0.12965092

fc1.bias f4 [128]
0	0xbf0e257c	-0.55525947
1	0xbe8f7531	-0.28019097
2	0xbf3cea4c	-0.7379501
3	0x3e207cf4	0.15672666
4	0xbe83a555	-0.25712076
5	0xbf012701	-0.5045014
6	0xbecdf174	-0.40223277
7	0xbed37588	-0.41300607
8	0x3e9b73c8	0.30361772
9	0xbe0cf922	-0.13766912
10	0xbef2c8f3	-0.47418937
11	0x3c22ea7c	0.009943601
12	0xbf2260ae	-0.6342877
13	0xbe4df839	-0.2011422
14	0xbf1c1240	-0.6096535
15	0xbe6c36c2	-0.23067763
16	0xbed75916	-0.42060155
17	0xbdc442cc	-0.09583053
18	0x3eaefc3b	0.34176812
19	0xbe2d1893	-0.16903906
20	0xbdb28104	-0.08716014
21	0xbdb77bd3	-0.089591645
22	0xbf55a96f	-0.8346166
23	0x3c82627a	0.015916098
24	0xbf5325f5	-0.8247979
25	0xbf0e7a44	-0.5565531
26	0xbef31794	-0.47478926
27	0xbd7dd14e	-0.061967187
28	0xbe71996d	-0.23593684
29	0x3e2da524	0.16957527
30	0xbcd38380	-0.02581954
31	0xbe191330	-0.14948726
32	0xbe7279fe	-0.23679349
33	0xbedb1a1d	-0.4279336
34	0xbf62b84d	-0.8856247
35	0xbc656ad5	-0.0140025215
36	0xbea3b976	-0.31977433
37	0xbe830ec6	-0.2559721
38	0xbec04833	-0.37555084
39	0xbed85b82	-0.42257315
40	0xbf8788db	-1.058864
41	0xbde1c989	-0.11024768
42	0xbeaa5888	-0.3327067
43	0xbddbc1f8	-0.10730356
44	0xbe9c511e	-0.30530638
45	0xbdc630a2	-0.09677245
46	0xbf339a0e	-0.70156944
47	0xbd5ed361	-0.054400805
48	0xbe465639	-0.19368829
49	0x3e352f4a	0.1769382
50	0xbed7e864	-0.42169487
51	0xbea0a16e	-0.3137316
52	0x3e63c4f9	0.22243108
53	0x3e1371da	0.143989
54	0xbe090fff	-0.13385008
55	0xbe303cb1	-0.17210652
56	0xbe494644	-0.1965571
57	0xbe94bfbb	-0.2905253
58	0xbf6f73bc	-0.9353597
59	0xbe129687	-0.14315234
60	0xbeb4f96e	-0.3534655
61	0xbf4464fc	-0.7671659
62	0xbe125ab7	-0.14292417
63	0xbf3ebc57	-0.74506134
64	0x3caa848e	0.02081516
65	0xbecb4a2b	-0.39705023
66	0xbe37206e	-0.17883465
67	0xbeb1b6d2	-0.34709793
68	0xbe9f50e3	-0.311164
69	0x3d25f570	0.04051727
70	0xbecdd3d5	-0.40200678
71	0x3dc10a9a	0.0942585
72	0xbf0a09f2	-0.53921425
73	0xbed229f9	-0.41047648
74	0x3e4c4083	0.19946484
75	0xbe835352	-0.25649506
76	0xbda684d7	-0.08130806
77	0xbf1d4789	-0.6143728
78	0xbea30ea3	-0.31847104
79	0xbed8e288	-0.4236033
80	0xbc47f09a	-0.01220336
81	0xbe060aee	-0.13090107
82	0xbf2585f4	-0.6465752
83	0xbf5fabc3	-0.8737146
84	0xbd31dc2a	-0.043422855
85	0xbde1637d	-0.11005304
86	0xbedfdfb0	-0.43725348
87	0xbe984bc0	-0.29745293
88	0xbf07620e	-0.52883995
89	0xbf0e1342	-0.55498135
90	0xbe83b657	-0.25725052
91	0xbe78dd96	-0.24303278
92	0xbe60748b	-0.21919458
93	0x3eea9cc5	0.4582273
94	0xbe8f4b16	-0.27986974
95	0xbe0c4615	-0.13698609
96	0xbe86acde	-0.26303762
97	0x3e0ff746	0.14059171
98	0xbed1c918	-0.40973735
99	0xbf089a5f	-0.5336055
100	0x3da0b3f0	0.0784682
101	0xbe93d0f3	-0.28870353
102	0xbd920b4c	-0.07131061
103	0xbf306067	-0.688971
104	0xbeb3047f	-0.34964368
105	0xbe69d317	-0.2283443
106	0xbeb516b0	-0.35368872
107	0xbcca026c	-0.024659358
108	0xbf185c89	-0.595162
109	0xbd52cddb	-0.05146585
110	0xbdda08f5	-0.1064624
111	0xbf0ab6b5	-0.5418504
112	0xbc088d6a	-0.008334497
113	0xbf1f4cb4	-0.62226415
114	0x3d0a24e3	0.033726584
115	0xbe5c496b	-0.21512382
116	0xbee36bb5	-0.4441811
117	0xbe3719e5	-0.17880972
118	0xbe211219	-0.1572956
119	0xbf1a3a93	-0.6024563
120	0xbf1fff55	-0.6249898
121	0xbe60cb5f	-0.2195258
122	0xbe8a9b46	-0.2707159
123	0xbf867cff	-1.0506896
124	0xbeeaf44f	-0.45889518
125	0xbe923715	-0.2855765
126	0x3c1abc14	0.009444255
127	0xbebb1010	-0.36535692

fc2.weight f4 [64, 128]
0	0xbf23fd38	-0.64058256
1	0x3c29ec4b	0.010371278
2	0x3f44b209	0.7683416
3	0xbd41f355	-0.0473512
4	0x3f350f16	0.70726144
5	0x3f3ad08f	0.72974485
6	0xbe9c9129	-0.30579498
7	0x3e8a29c8	0.26985002
8	0xbeadbef8	-0.3393476
9	0xbea7d6de	-0.32781118
10	0xbf0ad42f	-0.54230016
11	0xbf15e943	-0.58559054
12	0xbc63952c	-0.013890546
13	0xbedab799	-0.427182
14	0xbe9d9df4	-0.3078457
15	0xbda28d0c	-0.07937059
16	0xbece18ff	-0.40253446
17	0x3ea0c084	0.31396878
18	0xbf136e14	-0.5758984
19	0x3edad432	0.42740017
20	0x3ec34063	0.3813506
21	0xbe9bd25b	-0.30433926
22	0x3e794d18	0.24345815
23	0xbdf4044f	-0.11914884
24	0x3e0b32e5	0.13593633
25	0x3d365d0e	0.044522338
26	0xbe1b6659	-0.15175761
27	0x3f150eb5	0.58225566
28	0x3ddba57c	0.10724923
29	0xbe3beb7f	-0.18351553
30	0xbf1ffd6d	-0.6249607
31	0xbee6010f	-0.44922683
32	0x3d131b5f	0.035914775
33	0x3c6d2e0c	0.01447631
34	0x3f2a26d3	0.6646549
35	0xbe7887ae	-0.24270508
36	0x3ebbd05c	0.36682403
37	0xbf227995	-0.6346677
38	0x3dcc15d6	0.099651024
39	0x3e9ee0da	0.31030923
40	0xbed46766	-0.41485137
41	0x3dc88d7a	0.097926095
42	0x3e3bb9b7	0.18332563
43	0xbf1f49a0	-0.6222172
44	0x3dbc6a99	0.092000194
45	0xbf1164d8	-0.567945
46	0x3f4765ec	0.77889895
47	0x3e30257b	0.17201798
48	0x3f069f9a	0.5258728
49	0xbece4d3a	-0.40293294
50	0x3ead77ec	0.33880556
51	0xbd0cb687	-0.03435376
52	0x3df98a48	0.12184578
53	0x3f0eb619	0.5574661
54	0xbee0b5db	-0.43888745
55	0x3e448b68	0.19193804
56	0xbf1ba4d0	-0.6079836
57	0x3ea2dcac	0.31808984
58	0xbe57d99e	-0.21079108
59	0xbea9a435	-0.33133093
60	0x3db84398	0.089972675
61	0xbc7aaf45	-0.015300577
62	0xbf842f9d	-1.032703
63	0xbdc1d05d	-0.0946357
64	0xbecc1b62	-0.3986464
65	0xbee74ab9	-0.45174196
66	0xbefe2ee0	-0.49645138
67	0x3f3dd0a4	0.74146485
68	0xbebbc1bc	-0.36671245
69	0xbf78abd9	-0.9713722
70	0xbeb322d5	-0.34987512
71	0xbe6fb5ac	-0.23409146
72	0x3ec955b3	0.39323196
73	0xbf3a0811	-0.7266856
74	0xbeb1297a	-0.34601957
75	0x3e2ce325	0.16883524
76	0xbf0837a4	-0.532099
77	0xbf38107d	-0.7190016
78	0xbda097ff	-0.07841491
79	0xbe1672ca	-0.14692226
80	0x3cba5fa2	0.02275068
81	0xbe7090b5	-0.23492701
82	0xbee77da5	-0.45213047
83	0x3f05f7cb	0.5233123
84	0x3f05633f	0.5210456
85	0x3e4aeefa	0.19817725
86	0x3f27561d	0.65365773
87	0x3eb0fe2d	0.3456892
88	0x3e467c32	0.19383314
89	0xbe1c2f19	-0.15252341
90	0xbedc2e14	-0.43003905
91	0x3f83a653	1.0285133
92	0x3f0d5469	0.55206925
93	0xbebaf0e9	-0.36511925
94	0xbc3540a3	-0.011062774
95	0xbe073ab4	-0.13205987
96	0x3e4ba253	0.1988614
97	0x3d0f4a6c	0.034983084
98	0x3e8f78f5	0.2802197
99	0x3e6cfe11	0.23143794
100	0xbee27370	-0.44228697
101	0xbed21e9f	-0.41038987
102	0xbda13e31	-0.0787319
103	0x3eaf13dd	0.34194842
104	0xbe533923	-0.20627265
105	0xbf3ce037	-0.73779625
106	0xbe534f9b	-0.20635836
107	0x3ced285c	0.028949909
108	0x3ed5a334	0.41726077
109	0xbd910088	-0.070801795
110	0xbeffb6a2	-0.49944025
111	0xbf070d57	-0.5275473
112	0xbee07251	-0.43837216
113	0x3d6d6c34	0.05796452
114	0xbba1da02	-0.0049393186
115	0xbedbaf1c	-0.42907035
116	0xbcd31874	-0.025768496
117	0xbd707147	-0.05870178
118	0xbefdb488	-0.49551797
119	0xbf167043	-0.5876505
120	0xbf27f858	-0.6561332
121	0xbe29db0b	-0.16587465
122	0x3ee2e7a8	0.44317365
123	0x3e18af23	0.1491056
124	0xbebb293b	-0.36554894
125	0xbf0add22	-0.5424367
126	0x3e2a92d0	0.16657567
127	0xbf50a900	-0.81507874
128	0x3ba90c2d	0.005158922
129	0x3ef68d42	0.48154646
130	0xbf27c398	-0.6553283
131	0x3ceb0302	0.028687958
132	0x3e02aaab	0.12760417
133	0x3f160afb	0.58610505
134	0x3f0349ba	0.5128437
135	0xbe81c6d3	-0.25347003
136	0xbe5a4849	-0.21316637
137	0x3e109efc	0.14123148
138	0x3d16d04a	0.036819734
139	0xbcc569fb	-0.024098387
140	0xbea5b37f	-0.32363507
141	0x3e2aef07	0.16692744
142	0xbdf239a0	-0.11827397
143	0xbe61aa44	-0.22037607
144	0x3e91a920	0.28449345
145	0xbd4f2f68	-0.05058232
146	0xbcc728ef	-0.02431151
147	0x3d8b4ee3	0.06802156
148	0xbe70db08	-0.23521054
149	0x3ef4570a	0.47722656
150	0xbecc79fe	-0.39936823
151	0x3d73bd4a	0.059506692
152	0xbee11d96	-0.43967885
153	0xb9d1a9ce	-0.000399901
154	0xbef3153a	-0.47477132
155	0x3d5585cb	0.052129548
156	0xbf7107aa	-0.9415232
157	0x3da7d587	0.08195024
158	0x3e858156	0.26075238
159	0xbf3b1f55	-0.73094684
160	0x3e9304c1	0.28714564
161	0x3bf6963c	0.0075252336
162	0xbe4685e1	-0.19387008
163	0xbe6d8990	-0.23197007
164	0x3ec45739	0.38347796
165	0x3e618cd5	0.2202638
166	0x3ec74f18	0.3892753
167	0xbf39badc	-0.7255075
168	0x3eb22026	0.34790152
169	0x3efb651e	0.49100584
170	0xbefe774d	-0.49700394
171	0x3f0a316c	0.5398166
172	0x3efca22e	0.49342483
173	0x3d8b72ac	0.06808981
174	0xbf1e5223	-0.6184408
175	0xbf2eff58	-0.68358374
176	0x3f1ebb16	0.6200422
177	0x3d5bf3e0	0.053699374
178	0x3e861921	0.26191047
179	0xbf1fd73d	-0.624378
180	0xbea4ee74	-0.32213175
181	0x3d1a75b2	0.0377099
182	0xbf10900e	-0.5646981
183	0xbf6fdd11	-0.93696696
184	0xbe0b882d	-0.13626166
185	0xbd81ccaa	-0.06337865
186	0xbea8e306	-0.32985705
187	0xbdcaf391	-0.09909738
188	0xbe706181	-0.23474695
189	0xbeb885d5	-0.36039606
190	0x3ed77bb4	0.42086565
191	0x3dc39850	0.09550536
192	0xbed4ad2b	-0.41538367
193	0xbe9d8228	-0.30763364
194	0xbee99661	-0.45622543
195	0x3d728d91	0.05921704
196	0x3e90302d	0.28161755
197	0xbd94e498	-0.07270163
198	0xbf103024	-0.56323457
199	0x3d7d7941	0.061883215
200	0x3dbc75da	0.09202166
201	0x3e7c7bdc	0.24656624
202	0xbd892548	-0.06696564
203	0xbe26dfc6	-0.162963
204	0xbeb5150c	-0.3536762
205	0xbf50b6c4	-0.8152888
206	0xbeb3f901	-0.35150912
207	0xbed3eab1	-0.41389993
208	0x3c9833ea	0.018579442
209	0xbf0182e9	-0.5059038
210	0x3cecb3e6	0.028894376
211	0xbdd552a8	-0.10416156
212	0x3f1466f5	0.579696
213	0xbee32c88	-0.44369912
214	0xbd94128e	-0.072301015
215	0xbf328d5f	-0.69746965
216	0x3e4a8f3d	0.19781204
217	0xbd1e63e5	-0.038669486
218	0xbdf66ae1	-0.12032104
219	0xbef4b90b	-0.47797427
220	0xbf549c55	-0.83051044
221	0xbfa0cc92	-1.256243
222	0xbf73d5be	-0.9524802
223	0x3ec47ba4	0.3837558
224	0x3d9ef315	0.07761208
225	0xbdb3b488	-0.08774668
226	0x3f0082af	0.5019941
227	0xbf3e32b0	-0.74296093
228	0xbe129351	-0.14314009
229	0x3bdd8f23	0.006761448
230	0x3d855604	0.06510547
231	0xbea2464a	-0.3169425
232	0x3ec29831	0.38006738
233	0xbda3c037	-0.079956464
234	0x3e0e57a4	0.1390062
235	0x3f269a46	0.6507915
236	0xbd5b331d	-0.053515542
237	0xbec34ca9	-0.38144425
238	0xbf3c2f42	-0.7350961
239	0x3e5f8fe9	0.21832241
240	0x3eaf7100	0.342659
241	0xbed15d90	-0.40891695
242	0x3ca7d069	0.02048512
243	0xbf5b0b19	-0.8556381
244	0xbe397f7a	-0.18115035
245	0xbd8dea00	-0.069293976
246	0xbf296ae7	-0.66178745
247	0x3e5586e7	0.20852242
248	0x3f3540b3	0.7080185
249	0xbf99f0ce	-1.2026613
250	0x3f0f6e99	0.56028134
251	0x3df5b711	0.11997808
252	0xbeaface3	-0.3431159
253	0xbe999223	-0.29994306
254	0xbf194553	-0.59871405
255	0x3deb4b19	0.11488933

fc2.bias f4 [64]
0	0xbf007ece	-0.5019349
1	0xbec2921f	-0.38002107
2	0x3e0d7fad	0.13818236
3	0xbeba54cf	-0.3639283
4	0xbd270607	-0.040777232
5	0x3e99713b	0.299692
6	0xbe89a7b4	-0.2688576
7	0xbcccbbe6	-0.02499194
8	0xbf225995	-0.6341794
9	0xbdeecf7e	-0.1166067
10	0xbe6b1a2d	-0.22959204
11	0xbe2659a3	-0.16245131
12	0xbe92f936	-0.28705758
13	0xbda2f45f	-0.07956766
14	0x3e7a3322	0.24433568
15	0xbedcaa87	-0.43098852
16	0x3d0289f2	0.031869836
17	0xbf48cbf2	-0.78436196
18	0xbe0f0f5c	-0.13970703
19	0xbe64d6dc	-0.22347587
20	0xbed7f6e4	-0.4218055
21	0xbf4353d4	-0.76299787
22	0xbe546eeb	-0.20745437
23	0xbe362627	-0.17787991
24	0xbebfc02c	-0.37451303
25	0xbdec3910	-0.11534321
26	0xbd3517d9	-0.044212196
27	0xbe1dd872	-0.15414599
28	0x3c856572	0.016283724
29	0xbf0ec196	-0.5576414
30	0xbef8b4f3	-0.48575553
31	0xbba0dec7	-0.0049093696
32	0xbe7411af	-0.23834871
33	0xbea2ae92	-0.31773812
34	0xbf2ba451	-0.670476
35	0xbe5c7854	-0.21530277
36	0xbe73e0d2	-0.23816231
37	0xbe185fa6	-0.14880237
38	0xbe8c5bd1	-0.274138
39	0xbf042e11	-0.5163279
40	0xbf01b3c6	-0.5066494
41	0xbc02f9f0	-0.00799416
42	0xbe471bf0	-0.19444251
43	0xbeb3c834	-0.3511368
44	0xbe5e4a29	-0.21707977
45	0xbf33b052	-0.7019092
46	0xbee8339d	-0.45351878
47	0xbeeea7f0	-0.466125
48	0xbdb59999	-0.08867187
49	0xbf15a6ac	-0.58457446
50	0xbf21e5ba	-0.6324116
51	0xbe8fa3de	-0.28054708
52	0xbdc928d9	-0.09822244
53	0xbe4e9809	-0.20175184
54	0xbdae68fa	-0.085161164
55	0xbf0e43cd	-0.55572206
56	0xbf68ba74	-0.90909505
57	0xbf6415e2	-0.8909589
58	0x3d301672	0.042990156
59	0xbf7cc2df	-0.9873485
60	0xbda6d604	-0.08146289
61	0xbe14e1fd	-0.14539333
62	0x3be31a6d	0.0069306404
63	0x3da92115	0.08258263

fc3.weight f4 [4, 64]
0	0x3e57d006	0.21075448
1	0xbe3bae4b	-0.18328206
2	0xbe474117	-0.19458424
3	0x3f4b7cf6	0.7948755
4	0xbf4fcd42	-0.81172574
5	0x3ef85624	0.4850322
6	0x3ea97818	0.33099437
7	0xbe8e8ead	-0.27843228
8	0xbdb93ece	-0.09045182
9	0xbe94e6d1	-0.2908235
10	0x3ece03e4	0.40237343
11	0xbefb8b6e	-0.49129814
12	0x3e7295b9	0.23689927
13	0x3e44cebb	0.19219486
14	0xbe3b1268	-0.1826874
15	0x3eb058df	0.34442803
16	0xbe0d6f79	-0.13812055
17	0xbe2f57db	-0.17123358
18	0xbeb35faa	-0.35033923
19	0x3c2604c0	0.010132968
20	0x3e445bcd	0.19175644
21	0xbe893e14	-0.26805174
22	0x3be19156	0.0068837805
23	0xbe11766e	-0.14205334
24	0x3d8917c6	0.066939875
25	0x3e45420e	0.19263479
26	0xbf03a366	-0.514212
27	0x3f6fce44	0.9367411
28	0x3e7c1d62	0.24620584
29	0xbf90b583	-1.1305393
30	0x3ea20392	0.3164335
31	0x3e463ccf	0.19359134
32	0xbe0ccfda	-0.13751164
33	0xbf429cd1	-0.7602053
34	0x3e5fc895	0.2185386
35	0x3e7bbfa3	0.24584822
36	0x3e2c2a6f	0.16813062
37	0xbe108015	-0.1411136
38	0xbe8f6eb5	-0.2801415
39	0x3e4c1d51	0.19933058
40	0x3e12e20a	0.1434404
41	0xbeebe571	-0.46073487
42	0x3f719f12	0.9438335
43	0xbef39fb6	-0.47582787
44	0x3e12be3e	0.14330384
45	0xbe1b0ab6	-0.15140805
46	0x3e96f044	0.29480183
47	0x3f171eba	0.5903126
48	0xbf6edcc1	-0.93305594
49	0x3e6101c9	0.21973337
50	0xbf4f5bf5	-0.8099969
51	0x3cfc731f	0.030816613
52	0x3ed9fcca	0.42575675
53	0xbee953e8	-0.45571828
54	0x3f1924bf	0.59821695
55	0x3e068e60	0.13140249
56	0xbf31c519	-0.6944137
57	0xbfa0f95d	-1.25761
58	0xbd938694	-0.07203403
59	0x3f6dda74	0.9291146
60	0x3eb2533f	0.34829137
61	0xbee27f43	-0.44237718
62	0xbddbd8cf	-0.10734712
63	0xbf003a46	-0.5008892
64	0x3e6d1fef	0.23156713
65	0x3eaf978f	0.34295318
66	0xbdcbd640	-0.09952974
67	0xbed3bef7	-0.41356632
68	0x3dd7ec6a	0.10543139
69	0x3ee185ca	0.44047385
70	0xbdaa37b8	-0.08311409
71	0xbee3d662	-0.444995
72	0x3d4651ca	0.048417844
73	0xbe408a83	-0.18802838
74	0x3f13138b	0.57451695
75	0xbe71a4ed	-0.2359807
76	0xbf8840e0	-1.0644798
77	0x3dc2f4db	0.09519359
78	0xbdfdaae2	-0.12386109
79	0xbbe213cf	-0.006899334
80	0xbe79b0e7	-0.24383889
81	0x3d20a6f5	0.039221723
82	0xbe5d7c01	-0.21629335
83	0x3eef21a2	0.46705347
84	0x3df3c5a3	0.119029306
85	0x3e21f252	0.15815094
86	0x3e6ed6dd	0.23324151
87	0xbdacb124	-0.084322244
88	0xbebddcdc	-0.37082565
89	0xbea95dcb	-0.3307937
90	0xbdfc3741	-0.12315226
91	0x3e17704f	0.14788936
92	0x3efa743c	0.48916805
93	0x3c8e316e	0.017357554
94	0xbf34afd5	-0.705808
95	0xbe0364c6	-0.12831411
96	0x3e4e8984	0.20169646
97	0xbe3dc036	-0.18530354
98	0xbea3f0aa	-0.3201955
99	0xbe868b72	-0.26278263
100	0x3d9829bf	0.074298374
101	0x3e4a2a21	0.19742633
102	0xbdd9b455	-0.10630099
103	0xbe45b3a3	-0.19306807
104	0xbe58f21c	-0.21186107
105	0xbd8a7934	-0.06761399
106	0x3e95bd8d	0.29246178
107	0x3d440e21	0.047865037
108	0x3decb487	0.1155787
109	0xbe305761	-0.17220832
110	0x3dfd4922	0.123674646
111	0xbeb1d852	-0.34735352
112	0xbe6b1fb3	-0.22961311
113	0x3eac1cc6	0.33615702
114	0x3dc61e31	0.09673727
115	0xbd4c2e91	-0.049849097
116	0x3e425c80	0.18980598
117	0xbe1e6a7c	-0.15470308
118	0x3e339bc7	0.17539893
119	0x3d8a2e6c	0.067471355
120	0x3de532f4	0.11191359
121	0x3e84c2a4	0.2592975
122	0xbe9e673e	-0.30938143
123	0xbe4c1074	-0.19928151
124	0x3e2be5db	0.16786902
125	0xbe04235e	-0.12904117
126	0x3e4604a0	0.19337702
127	0xbda2ed10	-0.07955372
128	0x3f5bc441	0.85846335
129	0xbf04b6d1	-0.51841456
130	0x3f422579	0.7583843
131	0x3e2cc4c2	0.16871932
132	0x3d0b638a	0.034030475
133	0x3e672f8e	0.22576734
134	0x3f4b8b0f	0.7950906
135	0x3e9d4dd1	0.30723432
136	0xbf29a30a	-0.662644
137	0xbdfe5561	-0.124186285
138	0x3e354bf2	0.17704752
139	0xbe8102b4	-0.25197375
140	0x3eab6cae	0.33481354
141	0xbe8f1540	-0.279459
142	0xbd3375df	-0.043813583
143	0x3f1a04eb	0.60163754
144	0xbd9f80f5	-0.077882685
145	0xbf9659af	-1.1746119
146	0xbed91537	-0.42398998
147	0xbf07ea88	-0.5309224
148	0x3f769fe0	0.963377
149	0xbecc8bfa	-0.39950544
150	0xbec242eb	-0.3794168
151	0xbeec99df	-0.46211144
152	0x3eb7810d	0.35840645
153	0xbf016cf5	-0.5055688
154	0x3e74fc1e	0.239243
155	0x3f1f9083	0.6232988
156	0x3e8bfe2d	0.27342358
157	0xba3fe191	-0.0007319684
158	0xbd6a062d	-0.057134796
159	0xbf2e2946	-0.6803173
160	0x3dd8edf9	0.10592265
161	0xbe5809c1	-0.21097471
162	0xbe0d9656	-0.1382688
163	0xbd1dd0fe	-0.03852939
164	0xbefcbcde	-0.49362844
165	0x3ef57d2d	0.47947064
166	0x3f486cb6	0.7829088
167	0xbf82a222	-1.0205729
168	0xbe557559	-0.20845546
169	0xbeb5cd0d	-0.35508004
170	0xbdae9dd5	-0.08526198
171	0xbf17dbca	-0.59319746
172	0x3dd6ee97	0.10494726
173	0x3f4791f6	0.77957094
174	0xbf1dfe88	-0.6171651
175	0xbd9b659d	-0.075877406
176	0x3bb839ba	0.005622116
177	0x3e29d1c6	0.16583928
178	0x3f5e9acc	0.8695495
179	0xbf6a80ee	-0.9160298
180	0xbed6e466	-0.4197113
181	0xbf0308aa	-0.51185095
182	0xbf41ae14	-0.7565625
183	0x3eac6dc9	0.3367751
184	0x3ee13290	0.4398389
185	0xbe926d73	-0.28599128
186	0x3efcba0c	0.49360693
187	0x3f621d33	0.88325804
188	0xbf58e9a6	-0.8473152
189	0x3d49b2ae	0.049242668
190	0xbe2aa7a3	-0.16665511
191	0xbf06a93d	-0.5260199
192	0x3ef1cdf4	0.47227442
193	0x3e0f0655	0.13967259
194	0x3e6805a0	0.22658396
195	0xbef76faf	-0.48327395
196	0xbe6caea2	-0.23113492
197	0xbd33841a	-0.043827154
198	0xbf474125	-0.7783378
199	0xbf220855	-0.63293964
200	0x3c928f53	0.017890608
201	0x3ec92d39	0.39292315
202	0xbdbe4d6d	-0.092921115
203	0x3da8275a	0.08210631
204	0xbf42ceef	-0.76097006
205	0xbec8e8cf	-0.3924012
206	0xbf28e94b	-0.65980977
207	0x3e8ccbd5	0.27499261
208	0x3f1d2523	0.6138479
209	0x3db55053	0.08853211
210	0x3dbf14e0	0.093301535
211	0xbdb59115	-0.08865563
212	0x3f30ae7a	0.6901623
213	0x3f200b02	0.62516797
214	0x3e9fa82d	0.31182995
215	0xbea9137e	-0.33022684
216	0x3ce78463	0.02826137
217	0xbed231b1	-0.41053537
218	0xbcf6aa05	-0.030110369
219	0x3d8084e5	0.062753476
220	0xbf5592f7	-0.83427376
221	0x3eaabac4	0.33345616
222	0x3e8509de	0.2598409
223	0x3b8a5679	0.004221734
224	0x3f8bd29e	1.092365
225	0x3d4f7733	0.050650787
226	0xbe103566	-0.1408287
227	0xbeada3dd	-0.3391408
228	0xbea4433f	-0.32082555
229	0x3e1f666a	0.15566412
230	0x3d8b3de6	0.067989156
231	0x3f5c7be9	0.8612657
232	0xbe1a7914	-0.1508525
233	0xbb3dca01	-0.0028959515
234	0xbdcf956c	-0.10135922
235	0x3f1d2d9e	0.6139773
236	0x3eff99f3	0.4992214
237	0xbea313d2	-0.3185106
238	0x3f299f9b	0.66259164
239	0x3da9eb07	0.08296781
240	0x3e296b67	0.16544877
241	0x3ed72c2a	0.42025882
242	0x3ea18472	0.3154636
243	0xbf3c5c82	-0.73578656
244	0xbdcaf590	-0.099101186
245	0xbdf120d8	-0.117738426
246	0xbdfba011	-0.122863896
247	0x3e8f83a9	0.28030136
248	0xbf534529	-0.82527405
249	0x3f00375b	0.50084466
250	0x3d519692	0.051168986
251	0x3eff4988	0.49860787
252	0xbf059b1f	-0.5218982
253	0xbeefe4ae	-0.46854156
254	0xbe403218	-0.18769109
255	0xbebc2514	-0.36747038

fc3.bias f4 [4]
0	0x3d30a0bc	0.04312204
1	0x3cb6a356	0.022294682
2	0x3bda961a	0.0066707255
3	0xbe10a9b5	-0.14127238
