checkpoint_critic.pth (torch_old, 203018 bytes, 7 tensors)

fc1.weight f4 [256, 33]
00000000: 6d7e 11be 8c70 c8bd 5d38 623d fcb7 da3d
00000010: 2953 49bd 1610 06bf 3d69 4fbe 0c2d 0a3e
00000020: 808a 44be 867d 213f ab48 cabd e070 f63b
00000030: 3d38 13be defa 6dbe 5b20 673e b98d 34be
00000040: f48b 0d3e c028 e83d 8f32 9f3d f23c 4b3d
00000050: 21a1 d4bd 575a e2bd 0178 2bbe 1ddc 50bd
00000060: 764f 6c3d e2a1 d33d a319 003e 6e94 57bd
00000070: c2bb 1abe 08ec 56bc 25f2 a23d fcd7 1fbd
00000080: 13ae f7be 210d 70be 6766 abbd 682e 243f
00000090: c490 e9bd 05ea 9f3e f824 053e 5abe 8ebe
000000a0: 6887 9b3d 0ac8 823d a3f3 823f 16ef 12bd
000000b0: 7083 3fbd 1a55 403e 56ab 47bd ea96 273e
000000c0: 1564 c2bd 6414 91be b96f 923d 649f fc3d
000000d0: 2bc0 b0bd 4107 c23d eaf8 b23d c43b c33c
000000e0: 3c10 aebd b462 f23d 41bb 27be 9fe7 913d
000000f0: 597d 1b3e bf68 10be 8406 59bd cd04 60be
00000100: 8478 78bd 53aa ddbd 6e45 53bd 3a5d 4b3e
00000110: 3f4a e63d bf64 5dbd 4d60 143f 302d 2bbd
00000120: cab1 d8bc fbb9 cdbd 8eef 0abf caa8 99be
00000130: b41d 74bd 4024 113e fda0 2bbd 3b3c 40be
00000140: 876e e83d aecc 0b3e 76b5 b7bb e73c d83c
00000150: 89af e8bd 4552 f43d f8fc 0bbc 29e9 7abd
00000160: 0d12 83be c836 02bd 65b6 5ebd 28db d4bc
00000170: ffd0 7fbb fe47 82be c4ea 4dbd 4835 153d
00000180: cd49 973e c016 a43a cff3 aebc 0135 233e
00000190: 300b 29be 8db9 edbe 61c0 b43c 5a40 b73d
000001a0: 2afb 0b3e 5964 cfbc 66cd 29be 1a31 eabe
000001b0: e0ff 29bf 310c 943e fd33 033e c556 f9bd
000001c0: d054 f3bd 8a1d 183d 9f13 8c3e 8d34 48bd
000001d0: e863 abbc a8d6 d1bd 60aa 8e3d 9850 1cbe
000001e0: e91c 8f3e 037a 91be d3a2 61bd ba02 43be
000001f0: eb99 d0bc 0d6b 52bb 796c 8a3e cbfb f9bc
00000200: f843 ad3c 72a7 9dbe 40c9 8a3a 425c f73d
00000210: 2dc9 83be 00af 183f ff5b 763e 6a1b 0a3c
00000220: 6a1b c3bd 238d 1f3e ce8b dd3e 25ba 4bbe
00000230: f93a c73c 525d a5bd b5b6 2a3c 266f 023e
00000240: 5dfa e4bc 358f 5a3e caa6 ffbe 6d7e 51be
00000250: ad6c 71bd 7093 cfbd 4806 45bd ce55 7c3c
00000260: 22ac 173e 5069 e9bd 66e5 83be 5232 56bd
00000270: 5de9 99bd 579d a73d e4b3 64bd 14f3 753e
00000280: de49 a33d 88d7 ed3c 81b4 79be 7caf 3cbd
00000290: 4409 263f 087d 6f3d dee4 2fbc 46ca 903c
000002a0: 13a6 743e 4290 bd3d 9870 2e3d 395c ebbd
000002b0: f0ff 413e 611c 6dbe 7f38 7d3d d6ac acbd
000002c0: 5ca1 45bd 2d17 473c 5cc4 02be 7439 acbd
000002d0: 905c 09be 6c90 a13c 2b55 723b 16ec 523e
000002e0: bf0f 37be f049 0ebd 0c56 863d e86d 3c3d
000002f0: d378 963d d706 a9bd 1ee6 6a3d e143 9d3e
00000300: 50a0 e9bd 3d00 ee3d a84a 4f3c 4bca fc3d
00000310: 2c3e febc d7c7 e13f 35c1 043e b566 a33e
00000320: faa3 83be 5624 c1bd 8d79 48be f1a4 4e3e
00000330: 4039 babd e380 0ebe 0177 323e ecf0 733e
00000340: a3f4 863c 278b 82bc 446f 53bd 9573 6fbc
00000350: fa2b aebe c6a5 193e 877d 4e3e 5a5e d63d
00000360: 6c37 863d dbd2 a6bd 0287 bcbc 9ca5 13bd
00000370: a345 09be 3580 d93b 3c1e 7abc ed61 f13d
00000380: 61f3 25be ea52 803e 0af3 053e 2e17 0e3d
00000390: 1af9 68be 1078 103c 109b 94bf 08ad 77be
000003a0: 67ce a43e 2196 763d 1084 e93b dbe3 3ebe
000003b0: bd47 3d3e ede6 88be b680 46bd c519 943e
000003c0: 300e 8dbe 2170 3bbd 73da 953d e0bb 7b3c
000003d0: 7bc7 673e 78ee 7cbe c635 64be 5fd3 2c3c
000003e0: 2ed6 e2bd 8f3d e03d 1f15 62bd 8bb7 3ebd
000003f0: ba64 8e3d bd7f 1b3e 975a c23c 398a 97bc
-0.14208384 -0.097870916 0.055229533 0.106796235 -0.049151573 -0.52368295 -0.20254989 0.13493747
-0.19193459 0.6308216 -0.098771416 0.00752078 -0.14376922 -0.2324023 0.22570936 -0.17632188
0.13822919 0.113358974 0.07773315 0.04961867 -0.103822954 -0.11052387 -0.16744997 -0.050991166
0.057692967 0.10333611 0.1250978 -0.052631788 -0.15110686 -0.013117798 0.07956342 -0.039024338
-0.48374996 -0.23442508 -0.08369141 0.6413331 -0.11404565 0.3123323 0.13002384 -0.27879602
0.07594186 0.06385811 1.0230602 -0.03587254 -0.046756208 0.18782464 -0.048747383 0.16366163
-0.094917454 -0.2833587 0.07150216 0.12335089 -0.08630403 0.0947404 0.08738883 0.02383221
-0.0849919 0.118352324 -0.16380025 0.07124256 0.15184535 -0.14102457 -0.05298473 -0.21876831
-0.060661808 -0.108235024 -0.051579885 0.19859782 0.1124463 -0.054051157 0.57959443 -0.04179114
-0.026451964 -0.100452386 -0.5427178 -0.30011588 -0.05959864 0.14173985 -0.041901577 -0.18772976
0.113492064 0.13652298 -0.0056063486 0.026396228 -0.11361606 0.11929754 -0.008544199 -0.061257515
-0.2559971 -0.031790525 -0.054373164 -0.025983408 -0.0039034483 -0.2544555 -0.050272718 0.036427766
0.29548493 0.0012518987 -0.021356491 0.15938188 -0.16508174 -0.46430627 0.02206439 0.08947821
0.1367003 -0.025316404 -0.1658226 -0.45740587 -0.6640606 0.2891555 0.128128 -0.12174753
-0.11881411 0.037137546 0.2735872 -0.04887824 -0.020921662 -0.102460206 0.0696609 -0.15265119
0.27951744 -0.284134 -0.055086922 -0.19044009 -0.025464019 -0.0032107264 0.27035883 -0.030515572
0.021150574 -0.30791813 0.0010588542 0.12078144 -0.25739422 0.5964203 0.24058531 0.008429388
-0.09526713 0.15581183 0.43270725 -0.19895227 0.024320113 -0.0807444 0.010419537 0.12737712
-0.027951414 0.21343692 -0.49931937 -0.20458384 -0.058941532 -0.10135543 -0.048101693 0.015401317
0.14811757 -0.1139704 -0.25760955 -0.052294083 -0.07515214 0.08184307 -0.05583562 0.24018508
0.079730734 0.029033437 -0.24385263 -0.046065792 0.6485789 0.05846885 -0.0107357185 0.017674576
0.23891477 0.092560306 0.042587847 -0.114921995 0.18945289 -0.23155357 0.061821457 -0.08431403
-0.048249587 0.012151522 -0.12770218 -0.08409396 -0.13414216 0.019722186 0.0036977034 0.20597872
-0.178771 -0.03473848 0.06559381 0.046003252 0.07347264 -0.08253258 0.057348363 0.3071585
-0.1140753 0.11621139 0.012652077 0.12343272 -0.031035505 1.7639111 0.12964328 0.31914297
-0.25711042 -0.09430759 -0.19577618 0.20180108 -0.09092951 -0.13916354 0.17428209 0.23822373
0.016474074 -0.015935494 -0.051619783 -0.014614959 -0.34017926 0.15004644 0.20165072 0.10467215
0.0655354 -0.08145686 -0.023013595 -0.03604661 -0.1340547 0.006637598 -0.0152659975 0.11786256
-0.16206123 0.25063258 0.13080993 0.034690075 -0.22751275 0.008817688 -1.1609821 -0.241871
0.32188722 0.060201768 0.007126339 -0.18641607 0.18484397 -0.26738682 -0.048462592 0.2892591
-0.27549887 -0.04576123 0.073170565 0.015364617 0.2263469 -0.24700344 -0.22286138 0.010548442
-0.11076008 0.10949241 -0.055195924 -0.04656176 0.06952806 0.15185447 0.023724837 -0.018498527

fc1.bias f4 [256]
00000000: 1549 2b3e 768e cdbb e334 4b3e fc9a 2abe
00000010: 013d 90be df8a cbbb 7a56 e7be b0bf 46bf
00000020: 6abb 15bf f91e 8d3e 7ce7 ccbe 06f0 0ebf
00000030: 0f3c 98be a065 d1be fa25 e8be 3150 c83d
00000040: c6eb 6abf 4a1b e0be 94ed 35be 89e0 70be
00000050: 130d 7cbd ef0d c6be fa60 1dbe ecef eebe
00000060: efd2 19be 8bfa aebe fa60 d23c 9849 963d
00000070: d75d adbe 9f0a c9be 2681 e4be 0cdc d0be
00000080: 0e44 cdbe 3683 b3bd d534 95be b346 14bc
00000090: 7ef3 d3be 9d6c 313d ca46 1bbf 95e5 1abf
000000a0: e22a b4be be7c 02bf d70f 00bf 7f7e dbbe
000000b0: bec9 32be 161f 22bf 18d9 4c3d 6804 a9bd
000000c0: 20f8 ea3d b24d fabe 325b 25be 1771 bcbd
000000d0: e15a d9be 11db 41bf 3bd8 17bf 48b2 06bf
000000e0: ebdb cdbe 1f79 f0bd c1fa 993e f4fd 0bbe
000000f0: 281a 7abe 833f d93d d210 e7be 02e7 e7be
00000100: 18c7 7dbe 5d32 4ebf 169e e0be 30c2 e4b9
00000110: b7a6 9bbe 8fe0 4dbf f515 2c3e bf1c aabd
00000120: 4e12 1abf 05d1 0fbf cfdd f4be 363d 42be
00000130: 158d 07be 0567 22be dc8e 00be c6ce 04bf
00000140: da65 ab3e 4865 dabe d520 72be 29cd c53d
00000150: 46a8 a0be 8fd4 06bf 8f34 40be b1d6 01be
00000160: 6a69 7bbe f17a 54be ff40 7cbe ca76 9dbe
00000170: 737e a7bd 812c f9be 7fee 0fbd d09a 03be
00000180: 7666 36be bbd0 dabe 7b89 a7be df36 31be
00000190: 3491 babe 69c8 67be e314 52be 4acd 33bf
000001a0: 1fc6 c0bd db84 a5be dbab 23bf bc61 9bbe
000001b0: 41dd c0bd 8a0a c2be 9557 5e3c c97b 97be
000001c0: a909 01bf 06b6 08bf d536 e6be 39eb 08bf
000001d0: a6c7 b1bd 3505 7ebf 44f9 efbc 843e a4bd
000001e0: 929d 953e bff5 c2be 79a6 99be eb66 5ebd
000001f0: d75d 01bf 79d5 843d 281b cfbe 4e99 623d
00000200: 9b29 20bf 89cb 35be 914c 4fbf e9bd 24bf
00000210: 1dd6 31be 5023 adbd a96e 35be c3e8 22bf
00000220: 5559 55be 8073 883e 824e 1ebf 5562 aabd
00000230: 9b33 4bbe 197c 7abe 0125 b23b d4b8 e7be
00000240: 3937 eebd a80a b5be 4154 38bf a88e b9be
00000250: 4e17 b53d 1114 3c3d 1c95 42bf bca0 073d
00000260: 6b22 c7be 7743 67bd fac2 c2be 98e5 ecbe
00000270: 7210 86be 91ca 91be 9da0 09bf 8e12 a7be
00000280: dd2d 43be 4fc3 2cbf d7d7 45be 25e5 17bf
00000290: 1ac9 d6be 6619 d5bd 6c43 e4bd 6dc1 47be
000002a0: a4f5 36bf e4bf d6ba 0e38 95be c74d 0ebe
000002b0: 3525 96be 90fb 253e 97a4 d6bd 572e 843e
000002c0: 271c 97be 54a9 1dbf db2b b9bc 42e0 e6bd
000002d0: aa32 b9be c740 02be 817f 1abf 1e74 08bf
000002e0: 441e 823e 59f9 91be 34e9 a13d 6f7d f8be
000002f0: a414 7f3c 40eb 713e 0c3c 05bf a30d e4be
00000300: 7362 00bf 5ec9 b3be 9081 7dbc ba8c 7fbe
00000310: 4cc7 dbbe 7ae9 25bf bba2 c2be 53a6 ecbe
00000320: b5d4 3bbc 12f7 89bd b3db c0bd adb1 89bd
00000330: 677e ddbe a005 8ebe 1093 2dbf 37c5 513e
00000340: 84ab a8be 5240 36bf 2902 0dbf 0e5b 9d3e
00000350: b0b0 5cbe d454 78be 1fd3 26be 4c1b aebe
00000360: 0edb 08be 8732 fa3d 8503 02bf 002e 7bbe
00000370: 6e0f 9bbe 99c8 0dbf 370e 06bf 28c3 01bf
00000380: b039 de3d a6e6 f1be f6a4 59bf 8753 86be
00000390: 72a2 babe 1054 0bbf de0d c1be 7614 8bbe
000003a0: 8816 25bf b637 07bc 0be1 b0be 7b69 96be
000003b0: 8449 23bf ff9e bdbe 27c0 59be fb87 5dbe
000003c0: 80df 80be 1074 0fbf 2ed6 23be feb2 b6bd
000003d0: da8d aa3e 5fce d0be 92c8 963d acc5 f6be
000003e0: 5e9c 9b3e 242b 0abf 29b7 4f3e 1158 5fbe
000003f0: d46b 3bbe b776 1abf 1240 c0bd 63f1 aa3d
0.16727097 -0.006273086 0.19844393 -0.16660684 -0.28171542 -0.006211623 -0.45183164 -0.7763624
-0.58489096 0.27562693 -0.4002036 -0.55834997 -0.2973332 -0.40897846 -0.45341474 0.0978092
-0.9176601 -0.4377082 -0.1776641 -0.23523153 -0.061535906 -0.38682505 -0.15369025 -0.4666742
-0.15021871 -0.34175524 0.025681008 0.07338256 -0.33860657 -0.39265916 -0.44629782 -0.40792882
-0.40090984 -0.08765261 -0.2914187 -0.009050059 -0.41396707 0.043316472 -0.6065489 -0.60506564
-0.35188967 -0.5097159 -0.5002417 -0.42869946 -0.17459771 -0.63328683 0.050011724 -0.082527936
0.11473107 -0.48887402 -0.1614807 -0.09201258 -0.42452148 -0.75724894 -0.59314317 -0.52615786
-0.40206847 -0.11741852 0.30074123 -0.13671094 -0.2442404 0.10607817 -0.4513002 -0.45293432
-0.2478298 -0.805456 -0.4387061 -0.0004363223 -0.3040063 -0.80420774 0.16805251 -0.08306264
-0.6018418 -0.56178313 -0.47825477 -0.18968663 -0.13237412 -0.15859611 -0.12554497 -0.5187801
0.33476144 -0.42655396 -0.23645337 0.09658272 -0.31378382 -0.5266809 -0.1877005 -0.12679555
-0.24551931 -0.20750023 -0.24634169 -0.3075469 -0.08178415 -0.48666766 -0.035139557 -0.12852025
-0.17812523 -0.42737374 -0.32722077 -0.17306088 -0.36438906 -0.22635044 -0.2051578 -0.7023512
-0.094127886 -0.32327923 -0.63934106 -0.30348003 -0.09417201 -0.37898666 0.013570686 -0.29586628
-0.50405365 -0.53402746 -0.4496371 -0.5348392 -0.08680658 -0.99226695 -0.029293664 -0.080197364
0.2922178 -0.38078114 -0.3000982 -0.05429737 -0.50533813 0.06486029 -0.40450406 0.055321984
-0.62563485 -0.17753424 -0.80976206 -0.6435228 -0.17366834 -0.08454001 -0.17717995 -0.63636416
-0.20834859 0.2665062 -0.61838543 -0.083195366 -0.19843905 -0.24461402 0.00543654 -0.452582
-0.11631627 -0.35359693 -0.7200356 -0.3624165 0.08842336 0.045917574 -0.7600877 0.033112273
-0.38893446 -0.056460824 -0.3803938 -0.46268916 -0.26184422 -0.28474858 -0.537607 -0.32631344
-0.19060464 -0.6748552 -0.19320618 -0.5933402 -0.41950303 -0.10405235 -0.11145672 -0.1950738
-0.7146857 -0.0016384092 -0.2914433 -0.13896857 -0.29325262 0.16209245 -0.10480612 0.25816604
-0.29513666 -0.615865 -0.02260392 -0.112732425 -0.36171466 -0.12720023 -0.60350806 -0.5330218
0.25413716 -0.2851055 0.07905808 -0.48533198 0.015568886 0.23624897 -0.5204475 -0.44541654
-0.5015022 -0.35114568 -0.015472785 -0.24956027 -0.4292549 -0.6480938 -0.38014778 -0.46220645
-0.0114642875 -0.06736578 -0.09416904 -0.06723342 -0.432605 -0.27738667 -0.67802525 0.20485388
-0.32943356 -0.71191895 -0.5508142 0.30733532 -0.21551776 -0.2425111 -0.16291474 -0.340052
-0.13364813 0.122166686 -0.5078662 -0.24529266 -0.3028521 -0.5538421 -0.5236544 -0.5068841
0.10850847 -0.47246283 -0.85017335 -0.262356 -0.3645206 -0.54425144 -0.37705892 -0.27164048
-0.64487505 -0.008253029 -0.34546694 -0.2937735 -0.6378405 -0.37035367 -0.21264707 -0.21633904
-0.25170517 -0.5603647 -0.15999672 -0.08920859 0.3331135 -0.4078245 0.073624745 -0.48197687
0.30392736 -0.5397208 0.20284714 -0.21810938 -0.18302852 -0.60337394 -0.093872204 0.08346822

fc2.weight f4 [128, 260]
00000000: 5938 59bc 7e4a c23d 5903 8abe 4a04 c93d
00000010: fc36 ea3d a5d7 15bd b5d7 2cbe dde5 c63d
00000020: e914 703e e5ca 87bb 822a c33d 5f00 8ebe
00000030: 34ee 6d3e 0175 29bd 7565 8d3e 0de0 78be
00000040: 9178 d1bd b435 a43e 3eac 6ebe 9187 2fbe
00000050: 38da d8bd e2c6 e6bd bb6a ecbd 1b59 d53e
00000060: 1cb4 a9b9 731f 84bc b651 e1bd 9ff1 3dbe
00000070: 7e27 c1be 014f 963e 24fa 62bd 1a1d c73d
00000080: 36d0 323e 9263 6abe 6025 65be 55d1 833e
00000090: 4f68 543c 2657 b5be 1458 263d b75c d53d
000000a0: 964d 923d 9de9 f2bd 939f 583e ffbd c33d
000000b0: b567 2cbd 7237 003e 44ea f9bc 18b0 21be
000000c0: 045b 7ebe de70 a1bd c736 4ebd 0fd5 07be
000000d0: fbe9 9e3d 7da0 2b3e df7c 053d 30b2 d63e
000000e0: a0e1 bcbd 9636 edbb af34 8dbe 97f9 12be
000000f0: 1132 15be 36a4 cfbd b768 bdbd d3b6 453d
00000100: bc4c 023d cc29 903c ffd3 933e 2b35 16be
00000110: 3c2a 1e3e 5f5c 323e af47 a33d 6747 b0be
00000120: 4650 f03d c4cf a83e 2eca 733e bc5f ecbd
00000130: d079 033e e016 95bd ecfe 92bd 0110 fc3d
00000140: b295 b4bd 5fa9 2ebd fb10 f53d eb41 66be
00000150: bbed bb3d 44ee 033d 98e9 1b3c c8f1 103d
00000160: 319b 023f 908c 9f3e 251b 713e cc7d 1abe
00000170: 61f1 473e 9801 19bb 3f44 79be 4b5e 7b3e
00000180: e40e 31be 8ac6 3a3d efa1 363e 9969 05be
00000190: feb9 403d 2d2b 31be 6580 e1bc 6cce a3be
000001a0: 10b9 323e 5fa3 673e fc77 f33d aff7 c9bd
000001b0: 49ff e83c b9a8 80be 11f6 b1be 558c 423c
000001c0: 649a c9be 79fe a0bd 4758 63be be65 8bbd
000001d0: 4259 fcbd 18a7 e43e 409e 6c3e d98a abbe
000001e0: 2c8d e5bd 7e3a 643e 096e 0dbd fddf 5d3d
000001f0: 62f6 323a 56b7 8ebd e712 003f 7799 ca3b
00000200: db21 e03e 88d4 f2bd b4bb 8a3e 139a 0b3e
00000210: 3a25 4e3e d7f1 debd 7d4f 953e b966 4f3e
00000220: 79e0 dd3e 81f0 a6be 611e abbc a658 6bbe
00000230: 14a5 753e 7ce5 b13d 00dd 293e 9e20 e63e
00000240: 0f8b 95be 874e 2abe 1787 363d a2cc 903d
00000250: 743a 9dbd 5d83 08be 7f5b 123c 6921 d9be
00000260: 26b2 f5be a4b5 9f3e a0f9 c53e 319e d7bd
00000270: b02f 6bbe 494c 21bc b704 f6bc 3bcb e33e
00000280: 7f67 583e 5fbc 91be ebcc 69be 0388 9f3b
00000290: e6ad 77bd 75c4 00bd eb22 c3bd 7aaf 91be
000002a0: 7475 0c3e 2e80 cd3d 4897 8dbd 02ea 2ebe
000002b0: 2dde 3e3e 14fc abbd b944 ed3d bb9d 1b3e
000002c0: a1c0 3f3d 7d0a 203c 02d3 b93c 2a37 9d3d
000002d0: 165f 043e a3be ed3d 0800 363e 6354 eebd
000002e0: 55a4 9a3e 6bf0 433d 5d89 6dbe 7829 803c
000002f0: 8595 6bbe 5695 04bf 2b10 76be d7f2 ae3d
00000300: b37f 933e 3625 76bd 2d1b 60be 8e35 df3e
00000310: 4645 1f3e 2119 bf3e 410c b8be 2885 93bd
00000320: ed49 79be c195 32be 1c28 9b3d 4c1a babd
00000330: 2409 3fbe cb35 9c3e 0492 9f3e 1e79 67be
00000340: 6084 303e 76a7 7e3e 9834 af3e 43b6 15be
00000350: 2ab8 cb3d 8cb2 853e eb4f 08bd 25d0 5f3e
00000360: fef8 a43e 28cc 153e 035a 563e e2c4 143e
00000370: 6a40 7fbd 299b ef3d 506b e9bc 136a b33d
00000380: 9a09 d6be a6e5 00be 8dae b53e a47e 4fbe
00000390: 41e2 793d 8945 89bd acbd 403e a2e7 6fbe
000003a0: 3d95 ce3d 45ca 00be cedc bdbe 9f62 fcbd
000003b0: 137c ebbc 7049 b8be ac86 003e ce91 e9bd
000003c0: 139d 053e c0a1 bc3d cdfe a6be 9a0e c73d
000003d0: 07ea 833c 4f81 c5bd f6e1 52be b707 85be
000003e0: e1e1 4fbe 084b 413e 0ca6 d0be 7c3d 633e
000003f0: c2e7 b3bd 941c 093e d22b 643e 61ae 68bc
-0.013258063 0.094868645 -0.2695568 0.09815271 0.11436269 -0.036582608 -0.1687916 0.09711812
0.23445477 -0.00414406 0.09529592 -0.27734658 0.23235399 -0.04137135 0.27616468 -0.24304219
-0.10228074 0.32072222 -0.23307893 -0.17141558 -0.10588497 -0.11268403 -0.11543795 0.41669545
-0.00032368384 -0.016128277 -0.11001913 -0.18549202 -0.37725443 0.2935715 -0.055414334 0.097223476
0.17462239 -0.22889546 -0.22377539 0.25745645 0.012964322 -0.3541805 0.04061134 0.104180746
0.071437046 -0.118609644 0.21154623 0.09557723 -0.04209109 0.1252115 -0.030507214 -0.1578983
-0.24839407 -0.07882856 -0.05034521 -0.13264869 0.07759472 0.1676044 0.03258979 0.4193282
-0.09222722 -0.007239173 -0.27579257 -0.14353023 -0.1456988 -0.101387426 -0.092484884 0.048270058
0.03181146 0.017598055 0.28872678 -0.1466872 0.15445799 0.1741805 0.07972657 -0.34429476
0.11734061 0.32971013 0.23807594 -0.115416974 0.12839437 -0.07279754 -0.07177529 0.1230774
-0.088176146 -0.042641994 0.119661294 -0.22486083 0.09176203 0.03220965 0.009516142 0.03538683
0.51018053 0.31161928 0.23545511 -0.1508705 0.19525672 -0.0023346897 -0.2434244 0.24547689
-0.17290837 0.045599498 0.1783521 -0.13028564 0.047052376 -0.17301627 -0.027527044 -0.31993425
0.17453408 0.22620915 0.118881196 -0.09861695 0.028442042 -0.25128725 -0.34758046 0.011874278
-0.39375603 -0.07861037 -0.22201644 -0.06806515 -0.12321712 0.44658732 0.23107243 -0.3350437
-0.11208567 0.22287938 -0.034528766 0.05416869 0.0006826875 -0.06968562 0.5002884 0.006182845
0.4377583 -0.11856943 0.2709633 0.13632993 0.20131388 -0.10885971 0.29162207 0.2025403
0.43335322 -0.32605365 -0.02088851 -0.22983035 0.23988754 0.08686349 0.16588211 0.4494676
-0.29207656 -0.16631518 0.044562425 0.070702806 -0.07677165 -0.13331361 0.008932947 -0.42408302
-0.4798748 0.31193268 0.3866701 -0.105282195 -0.2296741 -0.009844848 -0.030031545 0.4449099
0.2113323 -0.28464028 -0.22832076 0.004868509 -0.060468577 -0.031437356 -0.095281444 -0.2845419
0.1371668 0.10034214 -0.0691362 -0.17081454 0.18639441 -0.083976895 0.115853734 0.15196888
0.046814565 0.009768126 0.022683624 0.07676537 0.12926897 0.11608627 0.1777345 -0.11637189
0.302035 0.047836702 -0.23196931 0.015644774 -0.23006256 -0.5179037 -0.24029605 0.08542412
0.28808364 -0.06009408 -0.21885367 0.43595546 0.1555377 0.3732386 -0.3594685 -0.07203132
-0.24344607 -0.17439939 0.0757601 -0.09087047 -0.1865583 0.3050979 0.3116609 -0.22604796
0.17237997 0.24868569 0.34219813 -0.14620309 0.09947236 0.26112783 -0.03327934 0.21856745
0.32221216 0.1462866 0.20932774 0.1452823 -0.06231729 0.11699516 -0.028493553 0.087604664
-0.418042 -0.12587604 0.35484734 -0.20263153 0.06100679 -0.06702716 0.18822354 -0.23428205
0.10087059 -0.1257716 -0.37082523 -0.12323498 -0.028745687 -0.35993528 0.12551373 -0.11404763
0.130482 0.09210539 -0.32616273 0.09719582 0.016102804 -0.09643804 -0.2059401 -0.25982448
-0.2030101 0.18876278 -0.40751684 0.22191423 -0.08784439 0.13389808 0.22282341 -0.014201731

fc2.bias f4 [128]
00000000: bc2b 5cbf 608d bebe 8ac7 3cbf ab83 d13e
00000010: fc43 d13d 2d72 d73e 745e 573c 8860 c63e
00000020: 029f 10bf 9b11 f43e 9e48 c43e 8c17 4f3e
00000030: 65c9 71be 5fbf 86bf 784a d63e 814d 793e
00000040: f52d 08be a4af ba3e bc3c 4f3e df0d 00bf
00000050: 79e9 b5be eea0 a8be 066c c3be bb98 e23d
00000060: 10a4 debe 25d3 ca3e c72a 743e e107 0bbf
00000070: dc36 27bf c2e8 c8be 656c 3cbe c13d 6abf
00000080: 821c b13e 1355 103e 322e 8dbf 7573 793e
00000090: d80e cdbe 4186 28bf 1b2a 0abf 0893 963e
000000a0: 768b aebc c9b1 d0be 5ad4 9ebe 44bf b5ba
000000b0: 106e a7be 6d24 873e 1c0e 5bbf 1dab 263f
000000c0: 1825 803e 9f78 afbe b56e 3abe b312 11bf
000000d0: 6f18 e1be 064a a7be d5c4 0ebf bc32 02be
000000e0: fa6f f83e 6248 debe 9902 03bf 5ceb e1be
000000f0: ba27 74bf a033 443e f723 303f faff 70bc
00000100: 6fa1 e83e 0d25 3cbf fc03 023f 76db a8bd
00000110: b98a 343e 5d0e 9c3e 27fb a43e 12cd 39bf
00000120: a2cf 1a3f 33ba 31be f599 a63d de97 0fbf
00000130: 0aa4 cebe 6bcd 1dbe e39c 6fbe f825 f13e
00000140: 667d ec3e c2b9 a73e c9dd 85be 678a 16bf
00000150: 42ec b83e 9e14 843d d272 0abf 0f99 43bf
00000160: 6ace d8bd 7b86 1bbf 6d33 20bf 30a5 1cbf
00000170: df08 dcbe ab5a d6bd 4416 c4be 1b6b a4be
00000180: 2da6 bcbe edd0 11bf 20a3 943e 2bb4 1abf
00000190: 1b1b 07be efe6 3fbd b2af 123e 8843 29bf
000001a0: 5cf3 aabe 1996 d5be 5f87 bebe 1ec7 973e
000001b0: 1ba7 443e a964 c43e 0450 913e bf02 b93e
000001c0: c2de 923e c722 54be a827 783e 229b 923e
000001d0: 20fc 1abf a6ad d6be 9ad9 21bf a5fe b13e
000001e0: 6f74 40bf e989 733e 67c5 01bf 5cce a3be
000001f0: 14b9 d3be a258 0ebf 397d 0cbd 2bda 4f3e
-0.86004233 -0.37217236 -0.7374197 0.40920767 0.10218045 0.42079297 0.013145078 0.38745522
-0.56492627 0.47669682 0.38336653 0.20223826 -0.23611982 -1.0527152 0.4185369 0.24345972
-0.13298781 0.36462128 0.20238012 -0.50021166 -0.35529688 -0.3293528 -0.38168353 0.11064287
-0.43484545 0.39614215 0.23844443 -0.543089 -0.65318084 -0.3924008 -0.18400724 -0.9150048
0.34592062 0.14094953 -1.1029723 0.2436045 -0.40050387 -0.65829855 -0.539705 0.2940905
-0.021306735 -0.4076064 -0.31021386 -0.0013866206 -0.3270116 0.26394978 -0.85568404 0.6510485
0.250283 -0.34271714 -0.18206294 -0.5666916 -0.43963954 -0.32673663 -0.5576909 -0.12714666
0.4852293 -0.434146 -0.5117584 -0.44124877 -0.9537312 0.19160318 0.6880488 -0.014709467
0.45435664 -0.73494035 0.5078733 -0.08244984 0.17631043 0.30479708 0.32222864 -0.7257854
0.6047307 -0.17356186 0.08134834 -0.56091106 -0.40359527 -0.15410392 -0.23399691 0.4709928
0.4618942 0.3275891 -0.2614577 -0.58804935 0.3611775 0.06449245 -0.5408145 -0.76405424
-0.10586245 -0.60752076 -0.6257847 -0.61189556 -0.42975518 -0.10466512 -0.38298237 -0.32112965
-0.36845532 -0.5695942 0.29030704 -0.60431165 -0.13193934 -0.046851095 0.14324835 -0.6611867
-0.33388793 -0.41716078 -0.37212655 0.29644102 0.1920437 0.38358048 0.2838136 0.36134908
0.28685576 -0.20716392 0.24233878 0.28633982 -0.6054096 -0.41929358 -0.6322266 0.3476459
-0.75177664 0.23783077 -0.5069184 -0.31993377 -0.4135214 -0.5560399 -0.03429911 0.20298068

fc3.weight f4 [64, 128]
00000000: 12e2 47be 8c1b b83a b26b f23d 6471 21bf
00000010: a5eb b83d e9db 103e 60e2 c0be 713f f4be
00000020: 41f2 99be c077 77bd 8b26 073e 6d4a 30bd
00000030: d4b8 cbbe 18e4 f4be 09aa 273e fc19 a33d
00000040: b922 8b3c 4bf7 ddbe ad77 e9be d5e1 e03d
00000050: eec3 8bbb 5131 d3bd 5699 efbd a40d 87b9
00000060: c754 ee3e bb59 07bf f102 e73d 415e 283d
00000070: f611 dbbc 0939 aebe 12e2 d3be 17e6 82bd
00000080: 432c fc3e a376 cdbd 8f0a 02bd 8290 3fbf
00000090: aca0 e33c 9028 3ebe 8101 a1bb 7a47 7e3d
000000a0: afd6 8dbe 22dc d0be f652 943c c1f8 56bd
000000b0: f637 9cbe e187 43bf 925f 85bd fa43 0ebe
000000c0: c182 89bd b0e1 b9be 8d22 513d 0024 9ebe
000000d0: 54b9 13be 707d 0c3e 3e51 633f 437f 2e3e
000000e0: a2e0 813d 35cc ecbd 2d8d e4bb 95d7 333e
000000f0: ea29 0c3d a862 253f 0b8c 04bf 0420 013d
00000100: 13bc a0bd 57ce c83d 0843 b53e 5637 59be
00000110: a1ac 52bf b6a5 59be 685c adbe 6a73 c539
00000120: fddd 883d 6e42 1b3e fd18 1cbf 732a cfbe
00000130: 0d14 883d 133c afbe 8537 103e d3d7 49bf
00000140: 03cc 843e cd42 e7be 78b0 17be 1e53 403e
00000150: 735b 003e 865b dcbd 61f0 df3d a15a 0f3f
00000160: d324 26be 30f4 b5bd bcac 7ebe 160b c7be
00000170: 0689 213e 6b33 683d 0652 babd b1f3 dabd
00000180: 6b13 d4bd 3ba3 c1bd e106 d2be 9546 843e
00000190: 1c98 bcbd cddb bdbd 9b75 53be d352 50bd
000001a0: 835c 83be 522b 78be 25ec 0fbf d876 58be
000001b0: 8479 cfbd 810e 433e cf17 34bf 9d7c 483e
000001c0: aca8 173e abb7 fcbd 99c9 f8bd 9e5a a33d
000001d0: e819 4bbf 67e2 b03c 47cd 0c3f b533 233e
000001e0: 07eb 99be 80d5 b33e 0d9b d13d 9205 fb3d
000001f0: a97e bcbe 9977 24bf 5d1a 37bf 0a2b 993e
00000200: fe17 9d3a 7723 133e f373 833e eeaa 91bc
00000210: 58d7 133e dc96 6a3d 6281 bbbe ed51 393e
00000220: fb10 6a3e 0ccd f53c b751 943c f2d8 0a3d
00000230: 2c23 b9bd 4c17 f9bd e4cc 453d d3e2 fd3d
00000240: 08f1 a3bb 3b3d d23d 0894 3b3e ea81 7f3e
00000250: 0f9a 42be 7b71 633d 34e2 cf3d 2b43 d6bd
00000260: 5604 b3be d2c5 923e d0bf 273e f769 233d
00000270: 5d96 64be 19e5 03be 6b1c 8f3e 3afd 243e
00000280: 1a0b 833d bd4d 98bd c53b 303e 668b 4f3e
00000290: a80e bd3c 24ca 873d 6c47 4fbf 816a d83d
000002a0: 95b2 bb3d 44ea 763e 2280 c5be f67a a53d
000002b0: 0b60 adbd 7aa6 303e 939f b3be d2e5 56bc
000002c0: 350b 54bd 264a c43c bf0b 23bd af65 8e3d
000002d0: 770d f6bd 5b89 093e d91f 94be 91e6 8e3d
000002e0: e498 bd3e 2f28 75bd b7f9 5cbe 2b19 093e
000002f0: 2cff 07be 372a 71bd f23d 06be 61bf 35bd
00000300: 9e0d bb3e 1933 5cbe 9420 65bc de34 6dbb
00000310: 066c 423e 6288 8ebd 1a97 e43c 466c 54bf
00000320: 3613 1dbe b0bc 093e 858f eebd 3475 3ebd
00000330: 5e1d 2ebe 43d6 2f3e 9c64 fcbc dd6d 983e
00000340: 4c51 d5bd 4ac8 9b3d a7a1 2a3c 1b40 31be
00000350: 557d c83e d32d 633e b964 6bbe 73cd b3be
00000360: 9122 943d 59a3 4ebe 2673 92bb f094 0dbe
00000370: b9d0 3f3d 97af 483d 045c c9bc ad94 2bbe
00000380: 0770 23be e0a1 8cbe 99c6 60bd 42e5 04be
00000390: b9b3 9bbe bf65 25be 44c4 fbbc 0be6 93be
000003a0: b887 e63d 5600 643e c374 43be b484 0fbe
000003b0: 8ecb 97bd 36cf 4a3d 9b74 293d 588a 22be
000003c0: 7d16 1bbd af50 a73e 1055 c13e 26c1 df3d
000003d0: d4a6 e13d 6d53 02bd e659 49bd 6fbf 95bd
000003e0: 5f42 6dbd 6afe ffbd 3801 88be 2b21 80be
000003f0: 58f5 e7be acb1 06bf b84a 993e 7fdd ff3d
-0.19519833 0.0014046296 0.118369475 -0.63063645 0.090293206 0.14146389 -0.3767271 -0.47704652
-0.30067638 -0.060416937 0.13198297 -0.043039728 -0.3978945 -0.47830272 0.16373457 0.079639405
0.01698433 -0.43352732 -0.45599118 0.10980574 -0.0042653 -0.10312141 -0.116991684 -0.0002575937
0.46549055 -0.5287129 0.11279858 0.041105513 -0.026741963 -0.3402789 -0.41383415 -0.063915424
0.4925252 -0.10032394 -0.03174835 -0.74829876 0.027786575 -0.18570161 -0.0049135094 0.062079884
-0.27702853 -0.40792948 0.018105965 -0.052483324 -0.30511445 -0.7637921 -0.06512369 -0.13893119
-0.067143925 -0.36304998 0.05105834 -0.3088684 -0.14426166 0.13719726 0.8879584 0.17040734
0.063416734 -0.11562387 -0.0069748373 0.17562707 0.03421966 0.6460366 -0.5177619 0.031524673
-0.07848372 0.09804981 0.35402703 -0.21212515 -0.8229466 -0.2125462 -0.33859563 0.00037660758
0.06682966 0.1516206 -0.6097563 -0.40462074 0.066444494 -0.3422552 0.14083679 -0.78844947
0.259369 -0.45168152 -0.14813411 0.18781707 0.12534885 -0.10759644 0.109345205 0.55997664
-0.16224985 -0.08884466 -0.2487058 -0.38875645 0.15774927 0.05668966 -0.09097676 -0.10691012
-0.10355266 -0.09454962 -0.41020873 0.258351 -0.092087 -0.09270439 -0.20650332 -0.050860237
-0.25656518 -0.24235275 -0.562197 -0.21139085 -0.10130599 0.19048502 -0.7034883 0.19578786
0.14810437 -0.123397194 -0.12147827 0.07976268 -0.79336405 0.021592332 0.5500073 0.15937693
-0.30062124 0.35123825 0.10234652 0.12256922 -0.36815384 -0.6424499 -0.715246 0.2991565
0.00119853 0.14368998 0.256744 -0.017781701 0.14437616 0.057272777 -0.3662215 0.18097658
0.2285804 0.030005 0.01810537 0.0338983 -0.09039912 -0.12162647 0.048291102 0.12396779
-0.0050030984 0.10265585 0.18318188 0.24951902 -0.19004081 0.055528145 0.10150567 -0.1046203
-0.34964246 0.2866655 0.16381764 0.039895978 -0.22322984 -0.12880363 0.2795137 0.16112223
0.06398602 -0.074367024 0.172103 0.2026802 0.023078278 0.06630352 -0.80968356 0.10567189
0.09164921 0.24112803 -0.3857432 0.080800936 -0.08465584 0.17251006 -0.35082683 -0.013116317
-0.0517685 0.023961138 -0.039806124 0.06952988 -0.12014287 0.13431303 -0.28930548 0.06977571
0.3703071 -0.059852775 -0.21579634 0.13388507 -0.13280934 -0.05887815 -0.13109568 -0.044371966
0.36533827 -0.21503867 -0.013984818 -0.0036194841 0.1898652 -0.06959607 0.027904082 -0.8297771
-0.1533936 0.13450885 -0.11648468 -0.046498492 -0.1700339 0.17171578 -0.030809693 0.2977132
-0.10415897 0.076065615 0.0104145175 -0.1730961 0.3915812 0.2218545 -0.22987641 -0.35117683
0.072331555 -0.201795 -0.004469293 -0.13826346 0.046829913 0.04899558 -0.02458001 -0.16755934
-0.15960704 -0.2746725 -0.054876897 -0.1297808 -0.30410555 -0.16152094 -0.030733235 -0.28886446
0.11256355 0.22265753 -0.1908751 -0.14015466 -0.07411872 0.049514018 0.04137097 -0.15873086
-0.037863243 0.32678744 0.3776021 0.10925512 0.11018148 -0.031817842 -0.049158 -0.07311904
-0.057924625 -0.124996975 -0.2656343 -0.25025305 -0.4530437 -0.52614856 0.29939818 0.12493419

fc3.bias f4 [64]
00000000: 494a 2fbf 85bc 7abf c5dd a9be 6f7e 3c3f
00000010: 5fd3 35bf 990f 39bf b110 7c3f e04b 20bf
00000020: 2f40 d53e 3e8b 6ebf e41d 30bd 2c0a 7bbf
00000030: a7e3 21bf 3434 2ebf 68cd f53e 2be3 493f
00000040: 8d02 3abf 23af 5cbf d37d 5fbf 5716 55bf
00000050: eb0f bdbc b799 1cbf ff2b 91bf 757e 1d3f
00000060: 29ad 87be 53fc 453f 5aab 6cbf 4b13 83bf
00000070: d79e 77bf 5ae1 393f bcef 123d fba4 78bf
00000080: d3ad 8fbf 5174 62bf b93b 10bf 56c1 683f
00000090: 213b c73e c313 00bf 187e 62bf 5a48 663f
000000a0: 40e0 43bf decd 81bf 865e 5fbf b324 60bf
000000b0: 2595 08bf 6536 edbe 65ad 3c3f 68d7 953e
000000c0: 420c 843f 06ce 7d3f b1a8 81bf 9165 863f
000000d0: defe 0abf 1fa6 29bf 04ec 2e3d 164c 6fbf
000000e0: 231e 1fbf c188 8ebe 8324 a5be 4204 c83f
000000f0: faec 0d3e 167f b4be f377 e0be 24aa 0e3f
-0.68472725 -0.9794391 -0.3317701 0.7363042 -0.7102565 -0.72289425 0.9846297 -0.62615776
0.4165053 -0.93181217 -0.042997256 -0.98062396 -0.63237995 -0.68048406 0.48008275 0.78862256
-0.7266014 -0.8620474 -0.8730137 -0.8323721 -0.02307888 -0.6117205 -1.1341552 0.61521083
-0.26499298 0.7733814 -0.9244896 -1.0240263 -0.96726745 0.72609484 0.03587316 -0.9712674
-1.1224922 -0.88458735 -0.5634113 0.9092001 0.389123 -0.50030154 -0.88473654 0.8995415
-0.76514053 -1.0140951 -0.87253606 -0.87556 -0.53352576 -0.46330562 0.7370208 0.29265904
1.0316241 0.9914249 -1.0129606 1.0499746 -0.54295146 -0.66269106 0.04270555 -0.9347547
-0.6215536 -0.2783871 -0.3225442 1.5626299 0.1385993 -0.3525321 -0.43841514 0.55728364

fc4.weight f4 [1, 64]
00000000: 8146 09bd 55a5 15bc 948c 1ebd 3566 b73c
00000010: da61 42bc 1339 d6bc ceb5 973c 95d2 b4bc
00000020: fa35 d23c 3f02 9cbc 16fd 0a3c ec40 edbb
00000030: 5210 d9bb d1e1 bbbb 7f59 403c 79e9 f53c
00000040: 717f 03bd eae3 32bc 8e98 bdbc ed22 b7bc
00000050: 6d8f b83b bbd3 5fbc 3a3b b7bc 1ab8 323c
00000060: 9baf 143c 5665 cc3c 1aa4 acbc 1d96 86bc
00000070: d891 c3bc 2c71 223c 7d1c 173d 4a3d 15bc
00000080: bd4a 8ebc dbe2 a1bc a37b d3bc bebd b23c
00000090: 673c f53b 3a22 11bc 937e 3bbc 9d70 9f3c
000000a0: 2204 123c 7e4a 8c3b 6403 56bc 8da5 15bc
000000b0: 26f0 8cbc 278b be3c f120 c23c 2b2f b33c
000000c0: 90a6 253d dc0a 683c b6d1 c9bb f67c 483d
000000d0: 116b 42bc c93d 97bc 61ce 9d3c ff22 20bc
000000e0: cc21 e6bc fdb2 683c 7168 25bc 1a22 083e
000000f0: eaac 9b3c 032d 2ebc 403c 0a3d 0615 6f3c
-0.033514503 -0.0091336565 -0.038708284 0.022387603 -0.01186415 -0.026150262 0.018519308 -0.02207307
0.025660504 -0.01904404 0.008483192 -0.0072404053 -0.00662426 -0.0057337065 0.0117400875 0.030018555
-0.03210396 -0.010918597 -0.023144033 -0.022355521 0.005632332 -0.01366132 -0.022367109 0.010908151
0.009075071 0.024950664 -0.021074343 -0.016429001 -0.023873255 0.009914678 0.036892403 -0.009108851
-0.017369622 -0.019761493 -0.02581579 0.021818992 0.007484007 -0.008858258 -0.011443752 0.019462878
0.008912118 0.004281341 -0.013062332 -0.009133709 -0.017204355 0.023259712 0.023697348 0.021873077
0.04044205 0.014162745 -0.0061590327 0.048947297 -0.011866347 -0.018462079 0.019263448 -0.009773969
-0.028092287 0.01420283 -0.010095702 0.13294259 0.01900335 -0.010630849 0.033748865 0.014592415
